backend/model/model.pt (torch, 163288 bytes, 61 tensors)

conv1.convs.<customer___transacts___transaction>.lin_l.weight f4 [32, 5]
00000000: e9e4 833c 7ade 7abd 42b2 183d a09f 1dbb
00000010: 8fc4 b93d 8fb0 87be 1b02 3a3f ee3f f83d
00000020: 1312 5b3d 7f4d 4f3f bc71 123f cdf9 f03e
00000030: a150 94bf 976a dcbd e0cf 2d3f 055d 083e
00000040: 816a 5a3e 1e4d 13be ca20 88bd d8d2 63bd
00000050: 9d4a c0bc d36b 033d 096f f03a f459 1ebc
00000060: 75fd d43d fe91 36bf 596b 1e3f 9c3f 953e
00000070: 106d 2fbe 52a6 9c3f b475 2fbc 217c 19be
00000080: d4b4 8b3d 97af a1be 0007 04bd 1f3b 8a3b
00000090: f9d1 81bf 99bb 8a3f 69cd a4bc 87db 89bf
000000a0: 635b 363e d778 8b3e 2ff6 91be de85 02be
000000b0: 706f 85bd ce05 863e 7619 1abf 9859 08be
000000c0: 149d a5be 7522 923e 6432 84bc c357 acbe
000000d0: e649 0d3f c5b5 a6bc 1a4a 713f 5140 e0be
000000e0: e64e d73e 0302 fcbe 1e55 25bc 726a e1be
000000f0: 6e28 a23c 67dc 85bf 2b48 803f c556 09bd
00000100: d8b9 c1bf 5ba9 453d 0b55 a0bb 6276 8f3c
00000110: 4e90 89bb 5f9d cfbd 86e8 f9bc 80b9 b9bc
00000120: fb61 033d cdb8 b0b9 4f3d 163e 680e c0be
00000130: eac3 553e 0a93 883e 29ea f5be 6688 adbe
00000140: 4684 1abd c27f 86bc 847d 873d 7945 09bc
00000150: b16c eebd 701c 0f3e a3a3 4bbf 7fcc 2c3f
00000160: 216b 283c 1433 413f 35c5 e53c 7dc5 99bc
00000170: ff7e 01bc 175f 99bb 4683 e1bd dfa1 533e
00000180: 0702 cabe 279c b23e f8b5 4ebb a638 563f
00000190: d885 663d b8bf 503b 8916 a53c 98ef c5bb
000001a0: 6dff d2bd 38a0 643c 3adb 01bf 4450 8f3e
000001b0: 8390 5cbc c06d 033f 6fa9 293d df66 063e
000001c0: ac3d bebd de13 393c c221 c83d 091a 653c
000001d0: 527f 6b3e 8c01 00be 98f4 59bd 7cab 49be
000001e0: 1db0 1b3e 233f b9bd d715 d83d 2e04 1e3c
000001f0: e8c0 4f3f 09cd 903d a6b9 1c3e f88b 0dbe
00000200: 37f6 34be f431 bfbd 1ec8 7ebd 0abe 453e
00000210: 0ffe b1be a391 37bc 6e0c 9bbd a6d0 29bd
00000220: b9fa c83e 196c 50be 7fc7 14be a096 ec3c
00000230: 3abb a33d 4667 b8bc 987c 99bc 17e3 d23b
00000240: bce5 b5bd 4b4b 89bf 87fb 073f 66d8 153d
00000250: 034e 0ebe 275a 523e 91e8 73be de65 3ebe
00000260: a910 133e 0d8f 4dbc f9e6 5e3d 33f5 9f3d
00000270: 82a5 c1bd 3ed8 973c 4e99 893a 7c84 333f
0.016100364 -0.061247326 0.037279375 -0.0024051443 0.09070694 -0.2650189 0.7265946 0.121215686
0.053484034 0.80977625 0.57204795 0.47065583 -1.1587106 -0.10762518 0.6789532 0.13316734
0.2132969 -0.14384887 -0.06646879 -0.055621 -0.023473078 0.03208525 0.0018343638 -0.009665001
0.103999056 -0.71316516 0.6188255 0.29150093 -0.17131448 1.2238257 -0.010709215 -0.14988758
0.068215996 -0.31579277 -0.03223324 0.0042184736 -1.0142204 1.08385 -0.020117478 -1.077012
0.17808299 0.2724063 -0.28508136 -0.12746379 -0.06515396 0.26176304 -0.601951 -0.13315427
-0.32346404 0.28541914 -0.01613731 -0.33660707 0.55190885 -0.020350346 0.94253695 -0.4379907
0.42052382 -0.49220285 -0.010091094 -0.44026524 0.019794669 -1.0457886 1.0022024 -0.033530015
-1.513484 0.048257213 -0.0048929504 0.017512504 -0.0041981107 -0.10137438 -0.030506384 -0.022671461
0.032075863 -0.00033707023 0.14671825 -0.3751099 0.20875517 0.26674682 -0.48030213 -0.33893126
-0.037723802 -0.016418342 0.06615737 -0.00837838 -0.11641825 0.13975692 -0.79546565 0.67499536
0.010279448 0.75468564 0.028048137 -0.018770928 -0.007903813 -0.004680525 -0.110113665 0.20667218
-0.39454672 0.3488476 -0.0031541567 0.8368019 0.056279987 0.0031852555 0.020152347 -0.0060405247
-0.10302625 0.013954215 -0.5072514 0.27990925 -0.013462189 0.5133934 0.04142135 0.1312518
-0.09289107 0.011296241 0.09772064 0.013983258 0.22997788 -0.1250059 -0.05321178 -0.19694322
0.152039 -0.090452455 0.105510406 0.009644551 0.81153727 0.07070357 0.15305194 -0.13822925
-0.17672049 -0.093357 -0.062202565 0.19310775 -0.34764144 -0.011204156 -0.0757073 -0.04145875
0.39253786 -0.20353736 -0.14529227 0.028880417 0.07994695 -0.022510182 -0.018736169 0.0064357626
-0.08881709 -1.0726103 0.53118175 0.036583327 -0.13896947 0.20542203 -0.23819186 -0.18593547
0.14361824 -0.012546313 0.05441949 0.0781044 -0.09455396 0.01853573 0.0010497959 0.7012403

conv1.convs.<customer___transacts___transaction>.lin_l.bias f4 [32]
00000000: 74dc 4ebf 0184 03bf d97d 0f3f 98ae ecbf
00000010: b712 48bf 637b 203f dcf6 9f3e 34e7 59bf
00000020: 3e7d bcbf d6e6 b5be 66a5 fd3e e4e2 a0bd
00000030: 9f77 85bf f030 e9be a6c3 69bf 91ca 03bf
00000040: 3c3b adbe 82b6 813f 71e6 febc 3d04 ffbe
00000050: c6d2 c7be 810f aa3e d5e3 423f 8bb5 efbf
00000060: 22e5 2dbf c730 88bf 2ab7 263f 50b7 c0bf
00000070: bdba 0e3f 4ef1 023d 25cb 31be b1a7 0fbf
-0.80805135 -0.51373297 0.56051403 -1.8490782 -0.78153557 0.62688273 0.31243026 -0.8511841
-1.4725721 -0.35527676 0.49540251 -0.07855776 -1.042713 -0.4554515 -0.9131416 -0.51480967
-0.33834255 1.0133822 -0.031115742 -0.4980792 -0.39027995 0.33214954 0.76128894 -1.8727278
-0.67927754 -1.0639886 0.65123236 -1.5055943 0.5575369 0.031968407 -0.1736265 -0.5611525

conv1.convs.<customer___transacts___transaction>.lin_r.weight f4 [32, 6]
00000000: 52bc 8d3f 0bb2 ce3d 2d44 163d a385 a8bc
00000010: f907 58bd 07b1 a5be 1eb3 7f3f 09f2 0bbe
00000020: e400 8a3c 07d0 523c 70fc 8abe cdea 18bf
00000030: d028 92bf cf30 91be f1f9 11bf 01fc 973e
00000040: dbb7 abbd 0c9a c43e 0435 a23f 956b 80bd
00000050: 9e51 3ebd a958 ccbe 64fe fabe 8c0b 1fbf
00000060: 4c3d 893f c20d 833e 35f1 36be 8b95 92bc
00000070: bd64 a4bd 258a a13d 608f 4dbe c328 93be
00000080: ab40 e7bd 533c 34be 02ce 453e 896a 8d3e
00000090: 25f7 cabe 6f81 d1bd ab10 c7be 4d25 b9be
000000a0: 4ec5 a23e 7f46 5b3e 9fe6 3ebf 0b50 683c
000000b0: e0f8 733e 22f5 28be a233 1f3e 439b 833e
000000c0: df56 b73f d153 873e a0d0 9fbe 40e5 913d
000000d0: 3204 393d b86e 2cbf 97d9 33bf d423 16bf
000000e0: 41ad cf3d 2638 34bf a6fc c2bd 33ec 533e
000000f0: 1266 a53f a355 413e c16b 0dbf eb3a 34be
00000100: 08d6 52be 01d7 ed3c 9d64 89bf 85b6 673e
00000110: 168f 48be e54c b3bd ac2c a0bc 6bae 773d
00000120: d933 663e 9692 35be 298f 683e 392f f4bd
00000130: 47ab a23d 9268 cdbe 94db 573f 0cb1 de3d
00000140: 33b3 86be 397f 173e c081 6b3d 9c2f e03d
00000150: 35ef 993f 441d e8bc d36c 54be 2321 b33d
00000160: 6133 d43d 5320 42bd d21c 36bb dd53 4ebe
00000170: 3926 dfbd 1e42 87bd eed0 89bd 52b4 84be
00000180: 2e80 923f 7e70 7c3e 58c0 a4bd e76e 42bd
00000190: 14ee 14be 97cc 3ebe da56 e53e a129 83bf
000001a0: 4ee6 25bf 8a12 28be f9ab 1c3e 613d abbd
000001b0: d54a 7c3f 091a f5bb 07ed 71bc ecae 98bd
000001c0: 97f2 91bd 7d7a cebe 8a83 c03f caaf 9cbe
000001d0: dbe9 15be ba43 163e dd8e a33d ec0a dcbe
000001e0: 49af 563f 7428 283d 587a 723e 09d2 0bbe
000001f0: 30a7 903d 91f3 bbbd a0ed 843f 076e 233d
00000200: f876 883c 8974 d6bd fe18 adbd d318 05bf
00000210: 92c7 65bf f155 c8bd 8dbe 073d 5b28 aa3d
00000220: f8ce 3bbe 9626 f1bf d213 9d3f a451 0bbd
00000230: a999 9cbd e2c5 7bbe 2282 c9bd 2a59 0bbf
00000240: 6d4b a13f 9a56 7cbb e44e 223e 2dd7 8c3d
00000250: 74ae 673e f607 d7be 5787 ba3f 55c9 713d
00000260: 4ac1 2fbe d2b3 123e 30e6 c2be 93f9 0dbf
00000270: 697c b4bf df2d 04be b3a6 4f3e d2d7 ecbc
00000280: c0d6 edbb 0613 a1ba 9e93 a33f 1e79 383e
00000290: cddd 8abe ef9a 1fbc 563f 72bd 57ff 7dbe
000002a0: c2d1 c8bf cf2d a7be 5972 b13d 3597 88be
000002b0: fa98 20be 12a5 89be ed28 64bf 50d2 a5bc
000002c0: 70c0 7fbe 5d78 abbe 9ed5 0e3e 7dd0 c83e
000002d0: 6d9c ccbe 0f27 373e e2ff db3d 415a 573e
000002e0: 5656 afbe c302 d7bd 5ca1 263f 289f 70be
000002f0: 7ccd c7bd b38e b4bd c2cd 8dbd 911f 90bd
1.1073096 0.10092553 0.03668611 -0.020571535 -0.05274198 -0.32361624 0.99882686 -0.13666548
0.016846128 0.01286698 -0.2714572 -0.5973328 -1.1418705 -0.2835755 -0.57022005 0.2968445
-0.08384677 0.38398778 1.2672429 -0.0627052 -0.046464555 -0.39911392 -0.4902221 -0.62126994
1.0721831 0.25596434 -0.1786545 -0.017893573 -0.08027027 0.07887677 -0.20074224 -0.28742036
-0.11291631 -0.17601137 0.19316867 0.27620342 -0.3964168 -0.102297656 -0.38879904 -0.3616127
0.31791157 0.21413611 -0.7457065 0.01417924 0.23825407 -0.16499761 0.1554704 0.25704393
1.4323386 0.26431134 -0.31213856 0.07123804 0.045170017 -0.67356443 -0.7025389 -0.5864842
0.101404674 -0.70398176 -0.09520845 0.20695572 1.2921774 0.18880324 -0.55242544 -0.176006
-0.20589459 0.029033186 -1.073383 0.2262822 -0.19585833 -0.08754901 -0.019552551 0.060469072
0.22480716 -0.177317 0.22710861 -0.119230695 0.07942825 -0.40118843 0.84319425 0.10873613
-0.26308593 0.14794625 0.057496786 0.10946581 1.2026125 -0.028334267 -0.20744638 0.08746555
0.10361362 -0.047394108 -0.0027788174 -0.20149179 -0.10895962 -0.06604408 -0.06729303 -0.25918823
1.1445367 0.24652287 -0.08044499 -0.047469046 -0.14543945 -0.18632732 0.44792825 -1.0247079
-0.6480454 -0.16413322 0.15299977 -0.083613165 0.98551685 -0.0074799103 -0.014765984 -0.07455239
-0.071263485 -0.40327826 1.5040143 -0.30602866 -0.1463999 0.14674273 0.079862334 -0.42977083
0.83861214 0.041054204 0.23679483 -0.13654341 0.070631385 -0.09177316 1.0385017 0.039899852
0.016658291 -0.10471446 -0.084520325 -0.51991004 -0.89757645 -0.09782017 0.033140708 0.083084784
-0.18340671 -1.88399 1.2271674 -0.034013405 -0.07646496 -0.24587205 -0.09839274 -0.5443293
1.2601143 -0.0038503767 0.15850407 0.06876979 0.22625142 -0.4199826 1.4572552 0.059029896
-0.17163578 0.14326409 -0.38066244 -0.55458945 -1.4100467 -0.12908123 0.20278434 -0.028911505
-0.007258266 -0.0012288995 1.2779424 0.18014953 -0.27122346 -0.009741529 -0.059142433 -0.24804436
-1.5689013 -0.32652137 0.08664388 -0.26677862 -0.15683356 -0.2688375 -0.8912495 -0.020241886
-0.24975753 -0.33490267 0.13948676 0.39221564 -0.39963093 0.17885993 0.10742165 0.21030523
-0.34245557 -0.10498574 0.65089965 -0.23498213 -0.0975599 -0.0881628 -0.06924011 -0.07037271

conv1.convs.<transaction___occurs_at___merchant>.lin_l.weight f4 [32, 6]
00000000: 437f d5be 12ee 6b3e da46 1ebe 8cb5 d5be
00000010: db02 57be af12 973e 4541 09bf 3a10 97bf
00000020: e197 8a3d 3bae 1b3e 3d2b 61bd 74e0 94be
00000030: 9504 c8bd b867 a2be 56cf 5cbd 5411 febd
00000040: 75c2 9ebd 0a6b 64bb d31e 253f b859 3b3f
00000050: 1418 063e 1803 1f3e c1cc 03bf d8ae 90bf
00000060: b555 b93e 8ff3 da3e b279 0fbe 3ac0 ddbd
00000070: 2d62 51bd b265 183b e037 f13e c0c9 5b3f
00000080: 9665 903e 5b32 bbbe eb45 37be ee2a 94be
00000090: 759d 313e f35a a8be 1c28 94be 9ebc 09be
000000a0: 4737 ac3e 64ea a3be 130b 04be 596c 2a3e
000000b0: 2dcb 9fbe dec4 5a3e cc8b acbe 977e 63be
000000c0: a0c0 253e 3f77 e23e 4ce0 c3bd 005a 5a3d
000000d0: 8738 65bd b62b 28bf b6d8 1f3e d223 e2be
000000e0: 90a1 483e 871d 85bd dc0b d7be d904 80be
000000f0: c3fe 1dbf ce2a 5fbf ee92 d43d 156e b6be
00000100: 2ac6 93bc 513a 633d 36f5 a83e 4d65 4c3e
00000110: f183 403d c575 9bbe af1a 66bd 59be c1be
00000120: 1be5 97be 4abd 433e e946 b9be d858 053e
00000130: ebca 24be 2d75 4a3e 8e8b 22be 3df5 583d
00000140: 9e53 dd3d 3aa7 123e e59e 91be db53 d8be
00000150: 70cc e4be 3762 f9be fc37 943e 978d b4be
00000160: 4290 c5be 701e b0be ec77 8e3e 6ace 7d3e
00000170: d356 9dbe 29b6 023e fd20 91be b4ef 38be
00000180: 7ee4 013f cb40 85be 616c 053e 0272 bcbe
00000190: bafe c6be ff6b 8dbe 7751 49bf 79cb cabe
000001a0: 8727 b9be 5c08 723e 1d8e 423e c31e 2fbe
000001b0: 97f0 59bf 3e05 9dbf d55f 283e abf6 5ebe
000001c0: 4d10 34be 62da b0bd 746c 81bf af29 37be
000001d0: e8b3 4d3d 93c8 743e a72a 1abe c5a8 b9be
000001e0: e219 28be e844 833e 0481 76bc f48b 86be
000001f0: 4f1d 77bd 631f f5bb cfab 843f ff6f ca3f
00000200: f0a7 173e 0402 7fbe 6e77 a6be 027f 8e3d
00000210: cc91 0b3f 37c3 bfbd 7e6f 9cbe 17d6 f93d
00000220: 146f 52be cbe0 0ebe 4350 4dbe 3015 c7bb
00000230: bbee 5fbd 96fd b7be 8a54 373e 8148 0d3e
00000240: 7250 ba3e f9e3 a93e 47e1 22be 1761 4fbe
00000250: 63a0 03bd 3fba 633e 3e33 333c 3028 15be
00000260: 5d4b b0be 71f5 16be 710f 46be 8c40 473e
00000270: 71c6 363f a524 da3f 323c 4f3d 953e c6be
00000280: 5880 40be 3321 9a3e d9f6 20bd c39c b93e
00000290: c81e b6be a678 73bd c3b6 503e 53b2 84be
000002a0: 3fd6 58be 655d f13d d7b5 393e 5fff e8be
000002b0: 58fe 95bd b2dd 92be bd8e 793d c297 3a3c
000002c0: bea4 e9be 78f8 c03d 7d61 23be 64ab 113e
000002d0: 61a3 ca3e 9ba2 6f3e 521a 84be 63ae 61be
000002e0: d60d 3dbe bc8e 24bc 5637 503e 7edb 8bbd
000002f0: 953d 6cbe 4545 353e a1fe a7bd 4a2a 17be
-0.41698655 0.23040035 -0.15456715 -0.41740072 -0.20997183 0.29506442 -0.5361522 -1.1801827
0.0676725 0.15203182 -0.054972876 -0.29077494 -0.09766499 -0.31719756 -0.05390867 -0.12405649
-0.077519335 -0.003485384 0.6450016 0.73183775 0.13095123 0.15528524 -0.51484305 -1.1303358
0.36198202 0.42763945 -0.14011267 -0.1082768 -0.05111902 0.0023253975 0.47112942 0.8585472
0.28202504 -0.36561856 -0.17897765 -0.28939003 0.17345221 -0.3288189 -0.2893685 -0.13450858
0.33635923 -0.32014763 -0.1289485 0.16642894 -0.31209698 0.21364161 -0.33700407 -0.22216259
0.16186762 0.44231603 -0.095642656 0.053308487 -0.05596211 -0.656917 0.15610012 -0.44167954
0.19592881 -0.064997725 -0.42001235 -0.25003698 -0.6171686 -0.8717469 0.10379587 -0.3563086
-0.018038828 0.055475537 0.3299958 0.19960518 0.04700083 -0.3036329 -0.05617779 -0.37840536
-0.2966698 0.19115177 -0.36186913 0.13022172 -0.16093032 0.19771262 -0.15873548 0.052968252
0.10806964 0.14321604 -0.2844154 -0.42251477 -0.44687223 -0.48707744 0.28948963 -0.35264274
-0.38586622 -0.34398222 0.27825868 0.24785772 -0.30730304 0.12764801 -0.2834548 -0.1806019
0.50739276 -0.26025996 0.13029625 -0.3680573 -0.38866216 -0.27621457 -0.7863993 -0.39608362
-0.3616297 0.23636001 0.18999524 -0.17101578 -0.85132736 -1.2267225 0.16442807 -0.21773784
-0.17584343 -0.08635403 -1.0111222 -0.17886995 0.0502204 0.23904638 -0.15055333 -0.36261573
-0.16416124 0.2563851 -0.015045408 -0.2627865 -0.060330685 -0.007480548 1.0364932 1.5815428
0.14810157 -0.24903113 -0.32512993 0.069578186 0.54519343 -0.09363406 -0.30553812 0.121990375
-0.20550185 -0.13952939 -0.20050149 -0.006075524 -0.05467103 -0.35935658 0.17903343 0.1379719
0.363895 0.33181742 -0.15906249 -0.2025188 -0.03213538 0.22239016 0.01093751 -0.14566112
-0.34432498 -0.14742066 -0.19341828 0.19458216 0.7139655 1.7042433 0.050594516 -0.3871962
-0.1879896 0.30103454 -0.039297912 0.36252412 -0.3557036 -0.05944123 0.20382218 -0.259173
-0.21175478 0.11785392 0.18135773 -0.45507333 -0.07323903 -0.28684765 0.06092714 0.011388721
-0.456335 0.09422392 -0.15955158 0.14225537 0.39577773 0.23401873 -0.2580133 -0.2203918
-0.18462309 -0.010043796 0.20333609 -0.06828974 -0.23070367 0.17702205 -0.082028635 -0.14762226

conv1.convs.<transaction___occurs_at___merchant>.lin_l.bias f4 [32]
00000000: 2996 eb3d 239c 86bd b4a6 a33e c254 f1be
00000010: 4afc 80be 0cee ab3c bc9f 1d3e bfd7 24be
00000020: 03b1 01bf 2c4c f2be f4db dfbe 36cf babe
00000030: c607 adbe 3954 08bf f2bb 2bbe b918 813e
00000040: 16dd 45be 1ccc 373e 75ad babe 554e ccbe
00000050: 9534 343e 3baf 07bf 2307 02bf c16c c43d
00000060: d473 99be e420 bebc def2 25bf dc89 9cbb
00000070: bc0a 6cbe c850 d53d 36c0 4d3e a420 fc3d
0.1150325 -0.065727495 0.31963122 -0.47134978 -0.2519248 0.020987533 0.15392965 -0.16097926
-0.50660723 -0.4732374 -0.43722498 -0.36486214 -0.33794993 -0.53253514 -0.16770914 0.25214174
-0.19322619 0.17948955 -0.36460462 -0.39903513 0.17598183 -0.53001755 -0.5079214 0.09591056
-0.29971182 -0.023209043 -0.6482371 -0.0047771763 -0.2305097 0.104157984 0.20092854 0.12310913

conv1.convs.<transaction___occurs_at___merchant>.lin_r.weight f4 [32, 3]
00000000: ec6e abbd 255d 173e 7e25 5fbe 87e9 05bd
00000010: 2366 8abd 2bf1 e8bc c0c1 da3d 1fbd 1c3e
00000020: e752 47be aa4c 04be 8507 583e aec7 1e3f
00000030: 7093 573e 9f5d 9b3e de0b ddbe e411 393e
00000040: 96bb a23e af23 a93f e5bb cdbe 3ca1 fb3e
00000050: eded 4d3e 9407 2f3c 00df 313e f95c b43e
00000060: de3f 1dbf 748c 28be de94 d63e da23 28bf
00000070: 9cff c0bc 320c 38be 0e0b 803e f6ee a4be
00000080: 90de cabe a2bd e2be 1e5d 8e3e 66e3 ab3e
00000090: 89d6 0abf c0e5 673c 5976 223e 1c36 063e
000000a0: 4844 9c3e 8d0f 94be 2642 8d3d e38b 883e
000000b0: 3246 81be 5cfc 9cbd c2bc b43e 106c 883e
000000c0: 6896 003f 1b8c d1be 624a cf3e 4741 73be
000000d0: 6145 93bb 1b55 73bf 4252 6c3e fffa 62bd
000000e0: f858 11bf d7b5 233e 68d2 49be 0457 10be
000000f0: 28c3 843e f099 e73e f9c5 08bf 439c 263d
00000100: 88b2 803e 56f8 ab3f e75d e63e 3f60 593e
00000110: 1ca6 7abc 6241 a8be b4a3 6f3e 2a43 eebe
00000120: d2a2 00be f964 893d f56f 17bd f561 093f
00000130: dfdd 5dbe 2555 42be 6e1d c13e 400d 9ebe
00000140: 5ab4 893f 1976 87be 1d91 9cbe d9b0 e23e
00000150: 04ae bf3e b578 153e 88ce 3ebc 8f7f 653e
00000160: 1e82 1e3e ff0c d4be cfdf 073f f315 8dbe
00000170: 4edf 0dbf 82e2 2bbe ab54 ff3e c61b d0be
-0.08370766 0.14781626 -0.21791646 -0.032693412 -0.06757762 -0.02843531 0.10681486 0.15306519
-0.19465218 -0.1291987 0.21096618 0.6202344 0.21052337 0.30344865 -0.43173116 0.18073231
0.31783742 1.3214015 -0.40182415 0.4914645 0.20110293 0.010682959 0.17370224 0.35227183
-0.6142558 -0.16459829 0.41910452 -0.65679705 -0.023559384 -0.17973402 0.25008434 -0.32213563
-0.39622927 -0.44285303 0.27805418 0.3357193 -0.54233605 0.014153898 0.15865459 0.13106579
0.30520844 -0.28918114 0.068973824 0.26669225 -0.25248867 -0.07665321 0.3530026 0.26644945
0.502295 -0.40927204 0.40486437 -0.2375537 -0.0044943546 -0.95051736 0.23078254 -0.05541515
-0.5677638 0.15987335 -0.1970917 -0.14095694 0.25930142 0.45234632 -0.5342708 0.040676367
0.2513621 1.3435161 0.44993517 0.21228121 -0.015298393 -0.32862383 0.23402292 -0.46535617
-0.12562111 0.06708712 -0.036972005 0.53665096 -0.21666668 -0.18977793 0.37717766 -0.30869484
1.0758164 -0.2645729 -0.30579463 0.4427555 0.3743745 0.14596827 -0.011645921 0.22411941
0.15479323 -0.41416165 0.5307588 -0.27555808 -0.5541886 -0.16785625 0.49869284 -0.4064619

conv1.convs.<transaction___transacted_by___customer>.lin_l.weight f4 [32, 6]
00000000: 0ee0 483f fcce bd3e 4085 98be d733 7d3d
00000010: f780 f8be 2bd8 893d 22cc 453e a35c 8c3e
00000020: c96e 833e 2df3 d73d c703 b83e b29a a63d
00000030: 7feb 59be ede5 543e 5f0a b3be 2cf5 2bbe
00000040: 43aa c13e 9bf3 863c f778 2a3e f98e aabe
00000050: 76e5 853e 7d1a c0be 96af 5f3e baa3 423d
00000060: cc8d 593f ac9a 86bd e861 b1bd 0b4a 56bc
00000070: d763 773e ff8f a23e 4bd3 883f 07b7 e0bd
00000080: 3ee4 acbd f84f 27bf 89c6 acbe bb1f f53c
00000090: ef4a 503e 1c66 cb3e c102 4dbd d881 b8be
000000a0: a631 c4be 4e4e 20be 9958 d4bd 58a6 71be
000000b0: 070b 8e3e 7cbc c3be 2ab9 5d3e cf98 0bbe
000000c0: 4274 ce3e 5127 15be 5066 38be f6e2 523e
000000d0: 1bda 893c 267b 6cbe fdc6 0d3f 43f0 393e
000000e0: fceb e83d 0d74 e1bd ab41 1ebf 4720 b63d
000000f0: b7f0 283d e0c1 853f c756 c63d d072 f3be
00000100: 74ad 60be 8bc8 6abe f987 2d3f 0d3a 60bf
00000110: 1219 24be 2c5a 26be c6ed c7be a183 6dbb
00000120: 7d04 41bd 0819 d23d 5bdd 2a3e 7856 eabd
00000130: 9e5d 843e eac6 943c 3a5a 0a3f fc7c d5be
00000140: c620 9cbe 0618 e9be 016f 533e 1b58 89be
00000150: dbef 063e a176 19be 8523 1a3e d0f9 a2be
00000160: 274e 78be 1fc1 8f3e 8486 e83f 5174 20be
00000170: b5d5 e93d 6ed5 583e c9e3 a2be c53e 363e
00000180: a6df afbe a095 9a3d 0104 93be f42b 843d
00000190: ccbd 8dbd 7b75 c83e fa23 493e d20e 9a3e
000001a0: 2670 8fbe ece8 ac3e 4f08 aa3e f0f5 153d
000001b0: ca57 74be a25a 983d 64ba 7bbe 9b28 54be
000001c0: 486d 79bc cfd9 a4be 421e 4e3e 42bb 9b3e
000001d0: 7557 2abe 8116 aabe a5e0 6bbd 0bb8 7dbe
000001e0: 5588 cb3d 3981 c6bd 90bb d2bd a440 b1be
000001f0: 7185 f2be 0d9b ccbd d47b 783f f0ad 883e
00000200: c210 a7be b236 803e 5802 cfbe 1fc5 583e
00000210: 1fbd 473f 2699 04be 7a30 e3bd 3983 08bd
00000220: 3aff 8d3d d270 25bd ccf8 9a3e e986 ccbe
00000230: 51e2 1e3e 8956 b7be 0a60 b53e e3cb b5be
00000240: ab8b e13d c260 513d 6c61 30be 9b6f 733d
00000250: d130 b7be b058 d6bd 0631 c43e 80ce 0c3e
00000260: ed01 88be 24e0 1bbe e050 76be 00eb c63e
00000270: 18f0 0140 1b03 d53d afa2 e03d 6c06 3e3b
00000280: 85e0 aebe 05f5 7d3e 44e8 213e 19e6 66be
00000290: e200 bbbe 1049 44be 0273 2f3e 0e94 c63e
000002a0: da05 653e 8fe8 8c3e 0d57 a2be 8c1e 9abd
000002b0: 76da d3bc 8983 313e fadd 4ebe 51c4 05be
000002c0: 1255 dbbe fb6f a1be e825 35be b8e4 c8bc
000002d0: 9c27 67bf 99f4 ffbd bba8 dc3e 1527 a8bd
000002e0: 8267 64be 3b13 833e 7134 fb3d 4f54 5ebe
000002f0: 2147 cabe 922b 3cbe b256 c13d f4fe fc3d
0.7846688 0.3707198 -0.29789162 0.061817016 -0.48535892 0.06730684 0.19316152 0.27414426
0.2567046 0.10544429 0.35940382 0.081349745 -0.21281241 0.20790835 -0.3496885 -0.16792744
0.37825212 0.016473582 0.16647707 -0.33312204 0.26151627 -0.3752021 0.21844324 0.047519423
0.8498199 -0.0657247 -0.08661252 -0.013079177 0.2415918 0.31750485 1.0689481 -0.1097241
-0.08441971 -0.653564 -0.3374522 0.029922357 0.20341085 0.3972634 -0.050051454 -0.36036563
-0.3831913 -0.15654871 -0.10368461 -0.23598611 0.27742788 -0.3822974 0.21652666 -0.1363251
0.40323073 -0.1456578 -0.18007779 0.20594391 0.016827634 -0.23093852 0.5538176 0.18158059
0.113731354 -0.11008463 -0.6181895 0.08892875 0.04124519 1.0449791 0.0968452 -0.47548532
-0.21941167 -0.22928064 0.677856 -0.8758858 -0.16025189 -0.16245335 -0.39048594 -0.0036241787
-0.04712342 0.102586806 0.16686003 -0.11442274 0.25852674 0.018161256 0.54043925 -0.41696918
-0.30493754 -0.4552614 0.20647813 -0.26825032 0.13177435 -0.1498666 0.15052612 -0.31831217
-0.24248563 0.28077027 1.8166051 -0.15669371 0.114177145 0.21175167 -0.3181441 0.17797382
-0.34350318 0.0754807 -0.28713992 0.06453696 -0.069209665 0.3915213 0.1964263 0.30089432
-0.2801525 0.33771455 0.33209464 0.036611497 -0.23861614 0.07439162 -0.24582821 -0.20718615
-0.015223809 -0.32197425 0.2012873 0.30416304 -0.16634925 -0.33220294 -0.057587285 -0.24777238
0.09938113 -0.09692616 -0.10289681 -0.3461963 -0.47367433 -0.09990511 0.97063947 0.26695204
-0.32629973 0.2504173 -0.40431476 0.21168946 0.7802295 -0.12949046 -0.110932305 -0.03332827
0.06933446 -0.040390797 0.30267942 -0.39946678 0.1551602 -0.3580821 0.35424834 -0.35507116
0.11012968 0.051117666 -0.17224663 0.059432607 -0.3577943 -0.104661345 0.38318652 0.13750648
-0.2656397 -0.15222222 -0.24054289 0.38851166 2.0302792 0.10400983 0.109685294 0.0028995527
-0.3415567 0.24800499 0.15811259 -0.22548713 -0.3652411 -0.19168496 0.17133716 0.38784832
0.22365513 0.27521178 -0.3170704 -0.075253576 -0.025861006 0.17335333 -0.20201865 -0.1306317
-0.4283834 -0.31530747 -0.17690241 -0.024523124 -0.90294814 -0.12497825 0.4309748 -0.08210579
-0.2230511 0.2560061 0.12265862 -0.21711849 -0.39507392 -0.18375996 0.09440364 0.12353316

conv1.convs.<transaction___transacted_by___customer>.lin_l.bias f4 [32]
00000000: 1e96 313e 4ba0 b2be b2ef c83c bf32 38bd
00000010: 847b 87be 703b 8b3d 557c 183e efc2 283e
00000020: a081 eb3d 4cb0 d8be 0632 e93d 0924 cdbe
00000030: 7e7b ce3e 3039 123d 0d77 663e 135c e7be
00000040: 4153 813d 34ef 34be 1d1e 00bf 6e2a 4ebe
00000050: 5f8c 0cbf d483 a1be d0d2 2bbe 0af2 b73d
00000060: 978d 97bd 54de e4bd 517e 04bf 04f8 b7be
00000070: 9731 e0bd 35c0 15bd 6dde b6be 22a6 2c3d
0.17342421 -0.3488792 0.024528358 -0.04497027 -0.26461422 0.06798446 0.14891179 0.16480611
0.114993334 -0.42322004 0.11386494 -0.40066555 0.40328592 0.03569907 0.22506352 -0.45187435
0.063147075 -0.17669374 -0.5004595 -0.20133373 -0.5490169 -0.3154589 -0.16779637 0.08981712
-0.07400053 -0.11175218 -0.51755244 -0.35931408 -0.109469585 -0.036560256 -0.35716572 0.042150624

conv1.convs.<transaction___transacted_by___customer>.lin_r.weight f4 [32, 5]
00000000: 4e51 d93e f36e edbe 8ff2 21be edef 803d
00000010: a722 313f 637a db3e 11e6 c9bd e969 b93e
00000020: c6b9 c8be 4097 48be 737d 8dbe 9267 c9be
00000030: e3bd b3be c1b9 ffbc f72b b6bd bab3 d83d
00000040: 4c15 13be b280 76be dc88 a3be 1c5d 82be
00000050: 327b dfbe 30d7 0c3f 7111 90be 5360 42bd
00000060: 5127 aa3f 5eb5 843f b4fc 123e bbca c8bd
00000070: e517 f83d d04b 54be ecd8 353d 2c8c c8be
00000080: fc78 893e 2721 383d 56dd 523e 3ee7 153e
00000090: 9e00 e5be 13a0 8b3e 8f5a 48be 83e4 13bf
000000a0: 6bbb ac3d 3ac1 323e d726 d0bd 61c7 23be
000000b0: 6232 4bbe ee19 36be 9d22 8abf c056 6e3f
000000c0: b8c5 a13c eea2 b6be 8e3a c53e 4872 4c3e
000000d0: d078 23bf e840 a3bc 5368 0fbf 7b60 36be
000000e0: 0c9e 6dbf e39c 473f 6ce0 933c fc5e 60be
000000f0: 3b3d acbe f96f bb3e 0c59 e3bc fecd a6be
00000100: 40ad bebe a67f 703d 9937 a7be 4f42 f73c
00000110: b205 8c3d 4b35 f03d 9fd0 b7be 8d2a b63e
00000120: fe3e 593e e7ab c6be cfc3 c33e 30d3 34bf
00000130: 21f8 d53e f667 2cbf 7f82 e2bd df37 e93e
00000140: b018 dabd 1ea2 833e ae9a ba3e 1213 a6be
00000150: 9f6d d4bd dfbc 983e b580 53bc 0e45 d7bd
00000160: 7693 d2bd 1bea 35be 7334 c83e 01df b9be
00000170: 5b33 1e3e 341a c73d beb5 763e f238 173e
00000180: 1747 96be b4dd aebd 27d9 bdbe 1734 60bd
00000190: 92d6 d13e ced7 fb3d 07c7 203c 11c4 cd3d
000001a0: 8078 d13e 0ba4 d73e f58c da3e d356 0bbf
000001b0: c00a 1d3d e2b2 54bc 9a66 a5be 7717 a7be
000001c0: b1ab 86be 3a12 8b3c b1d5 d4be e9d6 38be
000001d0: 0b7f e8bd da30 c8be 9996 e2be 27c1 ae3d
000001e0: 6fea 51be 8620 3ebf 57a4 45be 8e4d 4d3d
000001f0: b9f1 583f 1f6b a0be 702f 1c3e fabe 8abe
00000200: 4224 9bbc ecc6 963e 3c6e 32bf ab7e adbe
00000210: 3caa bc3e 129a 5fbd d31d 71bf 973d 89be
00000220: 5c61 c1be 26c3 df3e 3ce7 e4bd c3d4 59be
00000230: ede9 d5be 5437 4e3c b600 a7be 6a69 4cbe
00000240: fe81 d8be be98 ae3e 25d9 543e ef7c 15be
00000250: 7dbe 913d 0533 f9be 1765 7a3d 7ebb 343f
00000260: dac5 78bf 3247 6cbe 70f1 ce3e e528 6bbe
00000270: bcb4 263e fb20 74be d9a9 a83c 7e9d 51be
0.42444843 -0.4637371 -0.15815185 0.06295762 0.691935 0.4286681 -0.09858335 0.36213616
-0.39204234 -0.19588947 -0.27634773 -0.3933683 -0.3510581 -0.031216504 -0.088951044 0.10581155
-0.14363593 -0.24072531 -0.31940353 -0.25461662 -0.43648678 0.5501585 -0.28138307 -0.047455143
1.3293248 1.0367849 0.14354211 -0.09804293 0.121139325 -0.20732045 0.044396326 -0.39169443
0.26850116 0.04495349 0.20592245 0.14638993 -0.44727033 0.27270564 -0.19565795 -0.57770556
0.08434185 0.17456523 -0.10163658 -0.15994026 -0.19843438 -0.17783329 -1.0791813 0.9310112
0.0197476 -0.3567118 0.38521236 0.1996547 -0.6385622 -0.01992841 -0.5601856 -0.17810242
-0.92819285 0.77973765 0.018051349 -0.21911234 -0.33640465 0.36608866 -0.027752422 -0.32579035
-0.37241554 0.058715485 -0.32659605 0.030182986 0.06837024 0.11728915 -0.35901353 0.3557934
0.21215436 -0.38803026 0.38235328 -0.70634747 0.4179087 -0.6734613 -0.110600464 0.4555044
-0.1064924 0.25709623 0.36446136 -0.32436424 -0.10372471 0.29831597 -0.012909104 -0.10511218
-0.10282032 -0.17765085 0.39102516 -0.3630295 0.15449278 0.09721795 0.24092767 0.14767817
-0.29351112 -0.0853838 -0.37079737 -0.054737177 0.40984017 0.12297021 0.009813077 0.10047162
0.40912247 0.42117342 0.42685667 -0.5442936 0.03834033 -0.012982102 -0.3230484 -0.3263509
-0.26302865 0.016976465 -0.41569284 -0.18050732 -0.113523565 -0.3909977 -0.44255522 0.08532935
-0.20499586 -0.74268377 -0.19300972 0.05012279 0.8474384 -0.31331727 0.15252471 -0.2709883
-0.018938188 0.2944864 -0.69699454 -0.33885702 0.3684863 -0.054590292 -0.94186133 -0.26804802
-0.37769592 0.43703574 -0.11176917 -0.21272568 -0.41780034 0.012586433 -0.3261773 -0.19962087
-0.42286676 0.34100908 0.20785959 -0.1459844 0.07116411 -0.48671737 0.061131563 0.7059859
-0.971769 -0.23074034 0.40418577 -0.22964819 0.16279882 -0.23840706 0.020588802 -0.20470235

conv1.convs.<merchant___related_to___transaction>.lin_l.weight f4 [32, 3]
00000000: 0691 0b3d 5335 4cbf 3fcb 3ebf 7eef acbf
00000010: 24d6 f03e 424e c63e acbd 7bbf c711 36bf
00000020: 93cb 40bd bce7 993f 26c3 273b 9c3b 663f
00000030: 73ea 9abc 5188 20bf 1d96 92bf bdf9 72bf
00000040: 2d5e a7bf 2e6d 173f 748c 62bd 931d 1c3e
00000050: 0774 05bf 5621 723f 67cf ad3e 7ca8 5a3e
00000060: 6c09 8b3f 419e 463e c3cd 503f 86a3 bdbe
00000070: 4353 9f3e dc7e cb3f 11a3 723f 466e 97be
00000080: ab12 0abf 6eba 903e 838a d43e eb92 353f
00000090: 2b39 143f 887a 833e a733 be3e bca6 1fbe
000000a0: 4093 c0be c9d9 98bf de68 d43c 3896 e6be
000000b0: 1706 a9bf e590 6a3e 976d 463e 0cdd e8bc
000000c0: 5726 47be 2cb5 eebe d8ec 94bf 25f0 02bf
000000d0: 9a30 87bf f4ba 17c0 7ac3 12be 9383 43bf
000000e0: 148c 3abf fe91 d13e 797b 703e cae1 ffbe
000000f0: a626 2bbe 8873 aebe 1bb4 84bf 49c2 723d
00000100: e9a1 3fbf f11f ccbf 3607 7ebf a8f2 85be
00000110: ed00 343f e626 8c3f bbed 82bd d914 163f
00000120: b0c9 f73e e5ab d7bc ad02 083d ba27 a93f
00000130: 85ec 453e 2727 343f 557b de3e 237f 25bd
00000140: 6147 75be 5b6f 8c3f 1a2f 253f eaea 0b3f
00000150: 5541 8d3f e4d1 75bd 64eb 2ebe ee29 263f
00000160: 1885 bd3f 732f a83f d964 d7be 3422 563f
00000170: 5ea9 f33f c40d ca3e d693 f63e 3978 9bbe
0.034073852 -0.79768866 -0.7452888 -1.3510587 0.47038376 0.3873158 -0.9833629 -0.71120876
-0.047069144 1.2023845 0.0025598495 0.89934707 -0.018910622 -0.62708 -1.1452061 -0.9491232
-1.3075615 0.5915097 -0.055309728 0.15245657 -0.5213017 0.94582117 0.33947298 0.21353334
1.086225 0.19396307 0.8156397 -0.3703882 0.3111821 1.589809 0.9478007 -0.2957632
-0.53934735 0.28267235 0.41511926 0.70927304 0.5789973 0.2567942 0.37148783 -0.15590948
-0.37612343 -1.1941463 0.02592891 -0.45036483 -1.3204983 0.22906835 0.19377743 -0.028425716
-0.19448219 -0.46622598 -1.1634779 -0.5114768 -1.0561707 -2.3707857 -0.14332381 -0.7637264
-0.7286999 0.40931696 0.23484601 -0.4997695 -0.16713962 -0.34072518 -1.0367464 0.059267316
-0.7485643 -1.5947248 -0.99229753 -0.26161695 0.7031391 1.0949371 -0.06393 0.5862556
0.48396063 -0.026327083 0.033205677 1.3215249 0.19328506 0.7037224 0.4345347 -0.04040445
-0.2395301 1.0971483 0.64524996 0.54655325 1.1035563 -0.06001462 -0.17081982 0.6490773
1.4806242 1.313948 -0.42069128 0.8364594 1.9036062 0.39463627 0.48159665 -0.3036516

conv1.convs.<merchant___related_to___transaction>.lin_l.bias f4 [32]
00000000: 3d73 17bf 2f09 a9bf 2f38 443d bec9 10c0
00000010: d4b5 43bf 63a0 f43e e07c 723e 2b62 9dbf
00000020: d22e 7dbf 8c12 23bd 7ccc 5fbe e04e 183e
00000030: eae8 b1bf 44d3 dabd 2ba5 4abf 3c46 efbe
00000040: dabf fabd 9c4f c63e 3ed4 46be e5e3 71be
00000050: e267 f43d 3a11 3b3f c99b 8a3f 07e2 0ac0
00000060: 55d9 68bf bb84 7dbf 63b3 cf3e a880 86bf
00000070: 6d43 423f 6917 1dbe 4741 21bf 8b70 cbbd
-0.59160215 -1.3205928 0.047905143 -2.2623134 -0.7644932 0.47778615 0.23680449 -1.2295583
-0.9889957 -0.03981261 -0.21855348 0.14873838 -1.3899205 -0.10684827 -0.79158276 -0.46733272
-0.12243624 0.38732612 -0.19416901 -0.23622091 0.119338766 0.7307316 1.0828792 -2.1700456
-0.9095662 -0.99030656 0.4056655 -1.0508013 0.75884134 -0.15340962 -0.6299023 -0.09933575

conv1.convs.<merchant___related_to___transaction>.lin_r.weight f4 [32, 6]
00000000: 3274 4b3f 6a66 29bd 7326 c23c 6d2f 2c3c
00000010: 04fe 513d 639f 513d 381c 873f c667 423e
00000020: 5e2d 91be 5786 45be 1912 e9be cbc8 75bd
00000030: aeab 96bf ebb7 20bf adea 143e f527 043d
00000040: 28e5 7bbd de7d f03e b04e b83f bb83 ef3b
00000050: ffd1 7bbd 84fd 8d3e efa1 3d3e a11d a5be
00000060: 807f 923f 89d8 53be 701e 7c3e 8b19 a63a
00000070: 9524 993d 0966 d0be 83ab c2bb 16b9 f5be
00000080: 1aa8 da3b 3a8c 39bc 8598 fe3e 311b 1d3d
00000090: f85b 4cbe 6ec6 febd 3e7f 6fbe 1f23 dfbc
000000a0: e877 663e 18af 04bb d3ff 99bf 109d 13be
000000b0: 145c 753e 0288 cb3d 323c d9bd 7354 acbe
000000c0: ce44 cb3f 5a72 7fbd f9e9 083e 4f84 4fbe
000000d0: e641 90be f64d 11bf 2761 efbe 0174 44bf
000000e0: 0718 d1bc eaa7 f0be 9f16 e63c 5fe7 a13e
000000f0: 76a3 243f c36d 0a3d 987b e4bd 132d 603e
00000100: a276 463e b04a be3d d3cd 2abf 0350 813d
00000110: 87e1 17be 93e3 ea3d 8ebf 413c ac5b 2b3f
00000120: c67b 223e 69d1 853e 1a28 5e3e bcf8 62bc
00000130: 6d5b 41bd 3b45 293e 2853 5d3f d13b bfbd
00000140: b423 8b3e 4d8f 25be 9d87 5dbd 0784 bcbe
00000150: 973c 8b3f 59d9 273e 3c83 853e 145c b9bd
00000160: 1c41 d1bd d36a 86be 25ec 8c3c 1f74 643e
00000170: 682b 9e3e 6c0b 1b3e 25ce 973e 66fa 2bbd
00000180: 6811 b63f df8b 16be 2870 cd3d eb28 873d
00000190: ddd8 163e 835e 74be 3f39 b43d 6324 60bf
000001a0: 522c 03be 00e7 fd3d 8354 a0bd b3cd ecbe
000001b0: 7a2e 553f 8a7d 9e3d 2983 953c f28f 433d
000001c0: 11d1 983d fcaa f93d 34df d13f 16fe c33e
000001d0: aec8 a03d 41c6 67be f66e 22be cee6 7abe
000001e0: d1aa 7f3f f64e 1b3b 4f87 5fbe a7ea f83d
000001f0: 4737 99bd 7753 47be 2b46 5a3f 58e1 ddbc
00000200: 19ba 9fbe f3f6 a83d 857d c33d 7eaa 0fbe
00000210: 2e32 6abf 45e8 343d 5e6f 1fbb 14c5 38bd
00000220: e37d 363e 9d18 adbf f09b c63f 3eb9 9bbd
00000230: 9a62 6d3c cb0b 1c3e 2a5d 5cbe 64e7 91be
00000240: 2e51 903f 3f40 e23d 7d0a 4abe 1ad8 b1bd
00000250: 92e0 81be 3e21 07be 8003 be3f 6694 243d
00000260: c78f 903c 5b62 35be 9569 f33d ac34 06bf
00000270: 147e aabf a6b4 bbbe b6cf cdbe 5ba0 81bc
00000280: c1f4 573c 106c 143d be22 df3f 95e4 91be
00000290: f40e c73d 660b 8dbd a824 81be 2dd1 52bf
000002a0: a546 9bbf 859d 44bf 8569 f3bd 9fbe 603e
000002b0: f800 163e b9af 2fbe 8a74 70bf 4919 4bbe
000002c0: ce32 553c 0eb1 883e 3cc0 193e 509d 8b3e
000002d0: d349 02bf 94e0 a83c 410d 81bc 9cba f3be
000002e0: 9c80 333e 71f3 8ebd 12a4 9e3f e811 8b3e
000002f0: 608f 853d 7aa3 933d c758 853d fd88 d1be
0.79474175 -0.041357435 0.023699975 0.010509354 0.05126764 0.051177394 1.0555487 0.18984899
-0.28354925 -0.19289528 -0.4552162 -0.060005944 -1.1771142 -0.62780637 0.14542647 0.03226467
-0.061497837 0.4697103 1.4399014 0.0073094047 -0.061479565 0.2773248 0.18518804 -0.32249168
1.144516 -0.2068807 0.24620986 0.0012672407 0.074776806 -0.40702847 -0.005940856 -0.47992772
0.0066728713 -0.0113249365 0.49725738 0.03835601 -0.19956958 -0.12440191 -0.23388383 -0.027238427
0.22506678 -0.0020245966 -1.2031196 -0.14415383 0.23960906 0.09938051 -0.106071845 -0.3365818
1.5880373 -0.062364914 0.13370503 -0.20265315 -0.28175277 -0.56759584 -0.4675381 -0.7673951
-0.025524152 -0.47003108 0.028086958 0.31621835 0.6431192 0.033796083 -0.11156386 0.21892194
0.19381192 0.09291589 -0.6672031 0.06314089 -0.14832126 0.114691876 0.011825455 0.66936755
0.15867528 0.2613633 0.21694985 -0.013853248 -0.04720633 0.16530316 0.8645501 -0.09337581
0.27175677 -0.16167946 -0.05408441 -0.3681948 1.0877866 0.16391505 0.26076686 -0.09050766
-0.10217497 -0.26253375 0.017202446 0.22309922 0.3089249 0.15141076 0.29649463 -0.041986845
1.4224062 -0.14701794 0.10031158 0.06599601 0.14731164 -0.23864178 0.08799981 -0.8755552
-0.12809876 0.123975754 -0.07828619 -0.46250686 0.8327404 0.077387884 0.018251019 0.0477447
0.07461751 0.12190816 1.6396241 0.3827979 0.078507766 -0.22634222 -0.1586264 -0.24502108
0.9987002 0.0023698187 -0.2182896 0.121541314 -0.074812464 -0.19465433 0.8526332 -0.027084991
-0.3119667 0.08250227 0.09545425 -0.14029881 -0.9148282 0.044166822 -0.0024327855 -0.045109823
0.1782146 -1.3523136 1.5516338 -0.076036915 0.0144888405 0.15238874 -0.21519914 -0.2849685
1.1274774 0.1104741 -0.19730563 -0.08683796 -0.25366646 -0.13196275 1.4844818 0.040180586
0.017646683 -0.17713301 0.118853725 -0.5242412 -1.3319726 -0.3666126 -0.40197533 -0.015823534
0.0131809125 0.03623587 1.7432477 -0.28494707 0.09719649 -0.0688694 -0.2522328 -0.82350427
-1.2130934 -0.76802856 -0.11885361 0.21947716 0.14648807 -0.17156877 -0.93927824 -0.19833864
0.013012601 0.26697582 0.15014738 0.27268457 -0.50893897 0.0206149 -0.01575339 -0.4760331
0.1752953 -0.069800265 1.239382 0.271621 0.06521487 0.07208915 0.065110736 -0.40924826

conv2.convs.<customer___transacts___transaction>.lin_l.weight f4 [32, 32]
00000000: 51cc 40bc 9634 07be fdba b23d f81a 06be
00000010: 8170 e33c 4059 ed39 0061 923c 8029 2b3e
00000020: 16f2 2bbe d053 92bc e0e5 b6bd 1548 9d3d
00000030: 2448 c33c ed54 d83d e1c9 b53b 4eb9 a1ba
00000040: a58d 9cbd 2a80 0f3d 1073 393c e4fe 0d3e
00000050: 5c9c 213d 6871 543d dfbd 793c c1f3 8b3d
00000060: ad85 893d 64e6 00be 3116 8bbd 8171 2bbe
00000070: 31be 9cbd 39d1 08be 8800 97bc 7fa5 dd3d
00000080: 0651 493c b3a9 ffbd 3f8c 90bc 30b7 84bd
00000090: 23d9 c8bd 6c87 813c b65e aa3d a54a 05bd
000000a0: 0427 00be 6769 85bc 7902 04bd 01ef ea3c
000000b0: 427a de3d eb16 74bd ae87 6fbd 157b 14bd
000000c0: cec2 31bd e540 2abe 611d 913d 0a4f 0a3e
000000d0: df8e 033d 1177 53bd c3f6 87bc 6723 0a3d
000000e0: 86ba 33bd be50 12be 1b02 3bbe 869a 00be
000000f0: 73fa 8b3d 8589 623c b74f e63c 2dfe 05bd
00000100: 5c98 e5bd 08fe 27be 9a1e 79bd 993f 9b3d
00000110: 784d 673e 85f0 ebbd 93ed 83bd 8809 edbc
00000120: 2760 16be ad79 03bd 39a7 fbbd a5da b93b
00000130: 27ea bbbc 46fc 0fbe 63c5 04bd 8f5c a33e
00000140: 6445 6fbd 024b 253e a427 46be 5550 19be
00000150: 7d60 a9bd 2629 dfbd 8d22 f33c 7eb1 483d
00000160: 9c25 e1bd 4dda 063e 3ddb 8dbd 4095 033e
00000170: 395b 2b3e ebda d23c e68c 303f 83cb 8dbe
00000180: 94fa 9b3c 48d7 e13d e8c0 e3bd 2619 393d
00000190: 67d8 b2bc 628e 05be 1735 663d 33cf bfbd
000001a0: 3b50 c2bd 1bd3 a8bc ee16 743d 009b c43b
000001b0: e574 ce3d 0cf8 c03d 6784 0cbe 5546 53be
000001c0: c9cd e6bd dd87 72bb 79aa 96bd a6f9 1bbe
000001d0: bfce 6c3d e10e 26bd 2b04 a8bb 92ac c33d
000001e0: fef0 793b ade2 abbd 903f a0bd 7ca3 8b3d
000001f0: 1fc5 ac3d 2465 59be f572 0bbe 083b 233e
00000200: b8f3 a3bc 582f 163e e3ad 0a3c 27bd 82bc
00000210: fe76 ec3d fc5e 31bc 14a1 623d c7bb ed3d
00000220: d992 0abe c681 36ba 3294 0ebd 34b2 2f3d
00000230: 037c ef3c cd29 32bd f60f 75bd 256a 9f3e
00000240: 6b90 e93b 0885 dfbd 196a dabd 21c0 dabd
00000250: d3f1 9e3c 1daa 0e3d 0e81 0e3e d2b2 a5bd
00000260: bc41 bbbd 0cae 1a3e d412 ae3e 9fb6 a6bc
00000270: 10d5 2b3e 31d8 54be c527 6c3f 97de 06be
00000280: e1ef 4bbc c894 803d 7f64 d93d 2a9c 413d
00000290: 9b03 67bd 4c02 1fbc ead2 b33d 1a3a d13d
000002a0: 66fe 213a 1a67 d53c 5bc5 bcbd 1add 47bd
000002b0: 1c17 20be 9479 163c b0ec 663d c1f0 11bd
000002c0: 0865 6b3d 4c62 1dbe fe95 e1bc a972 683c
000002d0: 72f3 c33a b77c 40bd e988 28bc 093e d93d
000002e0: 9de9 e13b 1981 29bd be33 863d ad3f c33d
000002f0: 4d03 d1bc 9ff5 273e 42e0 95bd 17aa ce3c
00000300: e3c5 ce3c 2b07 e63d e38e b5bd 6a06 333e
00000310: 08de 6bbd 8bd0 2e3b 89a6 c7bd a966 a2bd
00000320: 647b 273e 3f96 793c be33 8c3c ee2c fd3d
00000330: b2ad 84bb bcee dd3d 07a9 cf3d 0857 6a38
00000340: e7f5 163e 4da6 9fbd 586b 8a3c 7f95 30be
00000350: 83bb 80bc 5688 ce3c f760 773c 1b00 213c
00000360: 29b1 9cbc 5614 bebd 7e08 8f3d 509a c63d
00000370: 0747 12bd 60a2 9bbd f649 5fbb bbcc 283d
00000380: e077 663c d22f 1cbe 7ba2 63bc 2c2a 8d3d
00000390: 34ec b73c 054c 4c3c dd84 4abe e340 a0bc
000003a0: e5d9 0d3e 7e0e 09bc 9da8 41bc 2520 c63d
000003b0: ca4e 2abe 341d 51be 34c6 1abe 85f3 21bd
000003c0: 2196 223e 8821 d53d ffbc 473c 124e 13be
000003d0: a940 dc3b be71 463c 9645 7e3c c6c4 44bd
000003e0: 6ceb 703d 1c99 fd3c e627 0bbd cbda 01be
000003f0: 9c1b 5dbd ddf4 943d bde2 2d3b ea34 19be
-0.011767463 -0.13203654 0.087270714 -0.13096225 0.027763607 0.0004527066 0.017868519 0.1671505
-0.16791567 -0.01786223 -0.08930564 0.07679764 0.02383811 0.10563073 0.0055477475 -0.001233855
-0.07644204 0.035034336 0.011318937 0.13866764 0.039455757 0.051865965 0.015243023 0.06833602
0.0671495 -0.12587887 -0.06791342 -0.16742517 -0.07653464 -0.13361062 -0.01843287 0.108225815
0.012287384 -0.124835394 -0.017645 -0.06480253 -0.098070405 0.015811644 0.08318846 -0.03254189
-0.12514883 -0.016285611 -0.03222892 0.028678419 0.108631626 -0.05959217 -0.058479004 -0.036250193
-0.04339867 -0.16626318 0.07085682 0.13506714 0.032118674 -0.051627222 -0.016597157 0.03372517
-0.043879054 -0.14288613 -0.18262522 -0.12558946 0.06834879 0.0138267325 0.028114183 -0.032713104
-0.11210701 -0.16405499 -0.0608202 0.0758049 0.22588146 -0.11520485 -0.06441798 -0.028935209
-0.14685117 -0.03209846 -0.122877546 0.0056718164 -0.022938801 -0.14061078 -0.032414805 0.31906554
-0.058415785 0.16141894 -0.19351059 -0.1497205 -0.08270357 -0.1089652 0.029679561 0.048997395
-0.109935015 0.13169213 -0.06926582 0.12849903 0.16734017 0.025739154 0.68964994 -0.2769433
0.019040383 0.1102739 -0.11120778 0.04519 -0.021831704 -0.13042596 0.056202974 -0.09365692
-0.09487959 -0.020608475 0.05959218 0.0059999228 0.100808896 0.09422311 -0.13722382 -0.20632298
-0.11269719 -0.003700725 -0.07356734 -0.15231952 0.057814356 -0.040541533 -0.00512745 0.095543995
0.0038138027 -0.08392844 -0.078246236 0.068182915 0.08436035 -0.21229988 -0.13618071 0.15940487
-0.020013675 0.14666498 0.008464309 -0.015959335 0.115461335 -0.010825869 0.055329397 0.11608081
-0.1353258 -0.0006962087 -0.0348093 0.042894557 0.029233938 -0.043496896 -0.059829675 0.3113567
0.0071278117 -0.109140456 -0.10664768 -0.10681177 0.01940242 0.0348302 0.13916418 -0.08090748
-0.09143397 0.15105456 0.3399874 -0.020350752 0.16780496 -0.20785595 0.92248183 -0.13170849
-0.012447328 0.06278378 0.10614871 0.04726807 -0.056399923 -0.009705137 0.08780463 0.1021616
0.0006179571 0.02605014 -0.0921733 -0.048794843 -0.15633816 0.00918426 0.056378067 -0.03562999
0.057469398 -0.15369529 -0.027537342 0.014187493 0.0014949872 -0.046993937 -0.010286548 0.106075354
0.006894304 -0.041382883 0.06552838 0.095336296 -0.02551427 0.16402291 -0.073181644 0.02522759
0.025240844 0.11231836 -0.08865144 0.17482916 -0.057584792 0.0026674594 -0.09748561 -0.07929737
0.16355664 0.015233575 0.017114516 0.12362085 -0.0040490264 0.108365506 0.10139661 5.5871e-05
0.14742242 -0.07795391 0.016896889 -0.17244528 -0.015714413 0.025211494 0.015098802 0.009826685
-0.019127445 -0.092812225 0.06984042 0.096974015 -0.03571227 -0.0759933 -0.0034071184 0.04121087
0.014066666 -0.15252617 -0.013893719 0.06892809 0.022451498 0.012469296 -0.19777246 -0.01956219
0.13852651 -0.008365272 -0.011819986 0.096741 -0.16631618 -0.20421296 -0.15114671 -0.03953888
0.15877582 0.10406786 0.012191056 -0.1438525 0.0067215753 0.012112079 0.01551952 -0.04803922
0.058818266 0.030956797 -0.033973597 -0.12681119 -0.05398141 0.072732665 0.0026532852 -0.14961591

conv2.convs.<customer___transacts___transaction>.lin_l.bias f4 [32]
00000000: 5120 0abf ddea 20bf 9267 f33d 3031 46be
00000010: efe7 e33b ff76 f63d 6917 ddbe 2771 f5be
00000020: 75f1 0ebe 072f 6fbe 8a3b d0bb 1f85 a2be
00000030: d239 413e ccad dcbd 9406 fd3d 5cbf adbd
00000040: 2ec0 323d 278e e6bd d2ac bb3b 5b11 f0be
00000050: c0ea 4f3d e524 c8be c96c a23c 493a a4be
00000060: e1d8 3fbf 21a8 8abf 0862 1ebe bfe3 f0bc
00000070: e50c 0e3e d5a4 5bbe da0e f3bc 2e3b 70bf
-0.5395556 -0.6285837 0.11884989 -0.19354701 0.006955139 0.120344155 -0.43181923 -0.4793789
-0.13959296 -0.23357783 -0.006354754 -0.31742188 0.18869713 -0.107753366 0.1235477 -0.084837645
0.043640308 -0.11257582 0.005727389 -0.4688824 0.050760984 -0.39090648 0.019827263 -0.32075718
-0.74940306 -1.0832559 -0.15467083 -0.029405473 0.13872106 -0.21449597 -0.029670168 -0.938403

conv2.convs.<customer___transacts___transaction>.lin_r.weight f4 [32, 32]
00000000: 3d0f 923e bb35 983c 4f54 03bd 3829 a7bf
00000010: 4312 3a3e a5fb a6bc cb2d d1bd 0e3d 043e
00000020: 93f9 aabf 9174 6bbe 5808 533e 8d4b 44be
00000030: c54e 4dbc 6dc8 a73e da95 393e 05a5 c73c
00000040: 4314 6f3e 6e9d 043e d3ae cd3c 3c3f 883e
00000050: a4ee 393e cffb 983e bbb3 29bf face c2bf
00000060: 03a0 c43e 403d bfbf 9225 d2be d89a fcbf
00000070: a2eb e2be 90da c1be a8f7 86bd a0c2 a63e
00000080: e6b2 4b3f 3f22 043f f5c5 f5bc 4ae0 95bf
00000090: 8744 f13c c833 86be 68d6 57bd 8bcf 6d3d
000000a0: 0cc0 ccbf 2bdf 8e3e e379 e43d a089 39be
000000b0: 39e6 96bc 30d1 523f 4aa1 013e 0e84 1ebe
000000c0: b158 edbd 5d66 313e ac76 1c3f 926b c23d
000000d0: 74dc a23e f14d bfbd 5f35 3ebf 586f 85bf
000000e0: 0518 ce3c 3131 adbf 5c1d 09bf 5d18 06bf
000000f0: 72e7 cebe 6dcc 1ebe 3115 473e a178 2b3f
00000100: 7ac2 06bf 53f3 8cbe 11bf a9be fc83 a13d
00000110: 092c 4abc c11e 003f ed27 253d a60e 443d
00000120: b566 70be 13c6 22be f435 33bf e110 5dbe
00000130: 7600 123e 3e0f bfbe c8fd d6bd e632 ea3c
00000140: b072 21be faca fcbd b943 45bf 8a51 41be
00000150: 91f1 edbe b832 123e 6f6d 093e 2ec9 2f3d
00000160: 9edb 13be 89ba 9fbd dc02 87be 8fc2 dbbd
00000170: 1e2a edbe 2d3a c6be 4f12 c4bd 1b0b 78bf
00000180: 6e2e a2be 49ea c23d c241 3ebe da1b 65be
00000190: db09 e13d 917a 303d 33b9 28be c97c 983c
000001a0: c14f 1a3f 1669 24be 6b4d eebe e0a4 30bd
000001b0: 079c 0bbe e82e 00be 8e5b ecbd a51a 21be
000001c0: 5a79 8cbd fa30 7e3d 1100 94be a05f 34be
000001d0: 58f6 d6be 2043 3abe d2e2 3ebe f4b7 52be
000001e0: 7822 d7bd 2bcc 36be a6fd 203d 7100 4bbe
000001f0: c80d 32be a4f0 31be 5b77 123f aaf1 0bbe
00000200: a306 96bf e22a 373e d59e b73e 0710 2abd
00000210: 341c 0abe 09bf a03e 370f 1d3e 7486 c8be
00000220: 75c7 d3bd 04c2 91be 792d b6be 0348 babd
00000230: 48ff 3ebe e5bf 35bf c468 eebd 3e48 1f3e
00000240: d251 1ebe 1d42 663f a8b4 6fbf 6bec 82be
00000250: d3df 0cbf c907 2a3f 6d7b e6be d424 673e
00000260: 92ad 93be 3cf5 d43d 8489 a93d b110 113e
00000270: 958c 0d3e 2b3f 18be d0a3 be3e 59f0 48bf
00000280: 8174 9c3e 873d f83e a822 413d df30 8abf
00000290: b3e8 8e3e e76f 53bd 76cf 213d a187 4c3d
000002a0: 2662 d0bf 2269 cdbd e12f 493e e436 553d
000002b0: 1d9e 37bc cd8f cd3e 70a8 933e c35a b23d
000002c0: 04b9 563e b608 8e3c 39e6 873e 8cca 1c3e
000002d0: 9d27 d63e 42b5 eb3e c29a 8cbf a62b 92bf
000002e0: 3b08 a33e c096 b7bf 6ec2 98be 9976 babf
000002f0: 44fe d4be 7d32 14be 6dc4 71be c9a1 953e
00000300: fea5 d03e 153c 05c0 be0c 4dbd 33c9 06c0
00000310: c04b 743e f44a 833c 4f11 4fbd 3e28 cb3d
00000320: 07a9 d4bf 4727 edbd c32f 90be 6c80 91bc
00000330: 5733 e7bf 7b61 6b3d 5d8d cd3c a5ca c6bd
00000340: 1ef8 f33c 09e4 b83e 0bde 163f 5f07 b23e
00000350: e78c fa3e 6e67 d33d eb0a 7dbf 92c6 eebf
00000360: 2a23 8f3e cee4 ecbf adf1 f03e 1ae1 b9bf
00000370: e0fb 0b3e e8ca 023e 963d 62bf 012f 173f
00000380: da84 383f 036d cdbf f1e9 2abc d076 dcbf
00000390: 9dfb 42bd 121e 38be 8b14 f0bd 5396 e2bc
000003a0: 25ea abbf 051d 8cbe 1d84 a43d a18b bfbd
000003b0: 833d 8cbd 08ee 973e a9a7 f4bb fc84 14be
000003c0: 48ee bd3d 8b70 65bd cc40 0e3f 9624 01be
000003d0: 101e 123f 221b 563d 4631 56bf a850 a4bf
000003e0: a930 213e 243d 8fbf 071b e4be 63e8 e7be
000003f0: 2ca7 cdbe 5fdf e3be 14cd 1ebf e328 1a3f
0.2852725 0.018580308 -0.032062825 -1.3059454 0.18171029 -0.020383665 -0.102138124 0.12913916
-1.3357414 -0.22993685 0.20608652 -0.19169445 -0.012530987 0.327701 0.1812357 0.02437068
0.23347573 0.1295068 0.025107777 0.26610744 0.1815744 0.29879615 -0.6628987 -1.5219414
0.3840333 -1.4940567 -0.4104429 -1.9734755 -0.443204 -0.37862062 -0.065902054 0.32570362
0.7956985 0.51614755 -0.03000162 -1.1709073 0.029451622 -0.2621138 -0.052694708 0.058059257
-1.5996108 0.2790464 0.111560605 -0.18118906 -0.018420326 0.82350445 0.12659183 -0.15480062
-0.11589182 0.17324205 0.6111858 0.09493174 0.31808817 -0.09341038 -0.7430019 -1.0424604
0.025157938 -1.3530637 -0.53560424 -0.52380925 -0.40410954 -0.1550767 0.19441678 0.6698094
-0.526405 -0.27529392 -0.33153585 0.07886502 -0.0123396 0.50046927 0.04032128 0.047865532
-0.2347668 -0.15895872 -0.700042 -0.2158847 0.14257988 -0.37316316 -0.10497624 0.028588723
-0.15766406 -0.12343402 -0.7705646 -0.18878761 -0.46473363 0.1427716 0.13420652 0.04291647
-0.14439246 -0.07799251 -0.2636937 -0.107304685 -0.46321195 -0.3871626 -0.095738046 -0.96891946
-0.31676048 0.095173426 -0.18579772 -0.22373906 0.10988208 0.04308564 -0.16476898 0.01861419
0.60277945 -0.16055712 -0.4654344 -0.043125987 -0.13633738 -0.12517893 -0.115409 -0.1573282
-0.068590835 0.062058426 -0.289063 -0.17614603 -0.4198482 -0.18189669 -0.18641213 -0.20577985
-0.10504621 -0.17851321 0.039304398 -0.19824387 -0.1738807 -0.17376953 0.5721337 -0.13666406
-1.1720775 0.17887452 0.35863367 -0.04151919 -0.13487321 0.31395748 0.15337835 -0.3916508
-0.10340778 -0.28468335 -0.35581568 -0.090957664 -0.1865207 -0.7099593 -0.11641076 0.15554902
-0.154609 0.8994463 -0.93635035 -0.25570998 -0.5502903 0.6641813 -0.4501604 0.22572643
-0.2884336 0.10398337 0.08278182 0.14166524 0.13823159 -0.14867847 0.37234354 -0.7849174
0.30557635 0.48484442 0.04715219 -1.0796164 0.2791191 -0.05162039 0.03950449 0.049934033
-1.6279953 -0.10029818 0.1964717 0.0520543 -0.011207131 0.40148774 0.28839445 0.08708718
0.20969015 0.017338138 0.26542833 0.1531164 0.41827098 0.46036726 -1.0984728 -1.141957
0.31842217 -1.434288 -0.29835838 -1.4567443 -0.4160024 -0.14472385 -0.23610087 0.29224995
0.40751642 -2.081792 -0.05006098 -2.1060302 0.23857021 0.016026951 -0.050553616 0.09919785
-1.6614083 -0.11579757 -0.2816144 -0.017761432 -1.8062543 0.05746601 0.025091821 -0.0970662
0.029781397 0.36111477 0.5893256 0.3477125 0.48935625 0.10322462 -0.98844784 -1.8654349
0.27956516 -1.8507326 0.47059384 -1.452182 0.13670301 0.12772715 -0.8837522 0.590561
0.72077715 -1.6048893 -0.010431753 -1.7223759 -0.04760324 -0.17980221 -0.11722668 -0.02765957
-1.343083 -0.2736589 0.08033011 -0.09352804 -0.0684767 0.2967379 -0.0074662757 -0.14503855
0.09273964 -0.056015532 0.5556762 -0.12611613 0.5707712 0.05227197 -0.83668935 -1.2837114
0.15741219 -1.1190534 -0.4455187 -0.45294484 -0.40166605 -0.44506356 -0.62031674 0.6021864
